lenet5_best.pth (torch, 335301 bytes, 10 tensors)

conv1.weight f4 [6, 1, 5, 5]
00000000: aab5 ecbe f1a7 02bf 1877 0ebe 97a7 ce3b
00000010: 8fac eebd a7fb d0be dd4c a6be cfac 20be
00000020: 119a d83d c38b 983d 77b2 74be 827b a9bd
00000030: edc7 b83e 05b7 ea3d 76d5 7e3d a8d9 7d3e
00000040: 493d a53e 86b1 d73e a855 813e 468f ad3d
00000050: 5d74 4e3e d488 bd3e 7faa cf3e fbaa ef3c
00000060: 381f 82be b087 a63e 5adb 903c 82e8 373c
00000070: 5bd1 67be 516b 87be 21a4 9c3e 00a1 953e
00000080: 3045 20be e24c 73be 19b5 c5bd d64d 733e
00000090: 2e78 593e 347b 86be 47c0 a9be cc32 7bbe
000000a0: f09d 363e ff52 5bbd fcd6 dbbc 1706 b9be
000000b0: 042b 11bc d97b 7f3e 0aa5 3d3d 8668 b9be
000000c0: befe 66bd 2d2c 88bd e00c 1abe de6f 36bd
000000d0: 6be7 58be 9738 9dbd 5da3 863e 4ed5 b3bd
000000e0: a1b1 1cbd 156b bf3d 3179 8e3e b13f a53e
000000f0: e41f a03d 1612 cc3e 89e3 c33e 7f6a b03e
00000100: ad21 863d e1da cd3d 7e4c 873e 498b a83d
00000110: 3eb9 e53d f194 3cbe c81a debe 820b d4be
00000120: e11b cfbe 2f18 95bd 9c7b 8bbe 01d7 0e3e
00000130: bee1 ab3d 8c7c 2e3c 3321 c63d 1a7e b3bc
00000140: d767 a93e 05ee b63e 7dc1 243d 76eb 66be
00000150: de8a d6be b26d a83e 3b13 f13e 1b8a 413e
00000160: c3e5 aabe d8b7 8dbe 0ebc 843e 1de7 893e
00000170: 6736 453e e9f3 46be 5efe 43be 242a 25be
00000180: d255 adbc 784b 263e 8b43 26be 9128 dcbc
00000190: dc0d e23d d6c7 96bc 64ef 14be 0eea 5dbe
000001a0: 14f4 bbbd 31c1 2a3e 2031 6d3e 3873 ed3d
000001b0: 8526 72be 5d49 f2bd 99a9 883d 0b83 6a3e
000001c0: dae0 353e 2784 923d c776 99be 27df fa3d
000001d0: 4061 ba3e 4c36 033e fb58 cfbd 0831 3338
000001e0: a509 013e 0adf 6d3e ac93 833e 60f4 31bb
000001f0: c484 0ebe b39f 01bd 139f 73be a4ef ffbd
00000200: 3891 8ebe a780 a7be eb06 1cbe 467a dd3d
00000210: 016b 153e c1ab 2ebe 4a9c f7bd 2a59 5b3e
00000220: 7243 a73e c735 683e bfcf 9b3c d625 6abd
00000230: 02e3 ff3d 49fb 41bc 4cd2 ad3e 6cff 6f3e
00000240: c1b5 5a3e d194 b8be 0c8b 3a3d 1c40 903e
00000250: 843c 793e f56f 48bd
-0.4623235 -0.5103751 -0.13912618 0.0063065994 -0.11654007 -0.40816996 -0.32480517 -0.15690921
0.10576261 0.074485324 -0.23896204 -0.0827551 0.3609003 0.114606895 0.06221529 0.2479006
0.3227332 0.42127627 0.25260663 0.08474593 0.20161577 0.37018454 0.40559766 0.029256335
-0.25414443 0.32525396 0.01768272 0.011224868 -0.22638457 -0.26449063 0.3059397 0.29224396
-0.15651393 -0.23759797 -0.09653682 0.23760161 0.21237251 -0.26265872 -0.33154508 -0.24531096
0.17833686 -0.053545948 -0.026835911 -0.3613746 -0.008860353 0.24949588 0.04629997 -0.36212558
-0.056395285 -0.06649051 -0.15043974 -0.04454028 -0.21182029 -0.07676809 0.2629651 -0.08780919
-0.038255338 0.09346596 0.27826837 0.32275155 0.07818583 0.39857548 0.38259533 0.3445625
0.06549392 0.100515135 0.26425546 0.082296915 0.11216973 -0.18416192 -0.43379807 -0.4141503
-0.40450957 -0.07280003 -0.27242744 0.13949205 0.08392666 0.0106498115 0.09674301 -0.021910716
0.33087036 0.3572847 0.040223587 -0.22550759 -0.41902822 0.3289619 0.47084984 0.1890034
-0.3337842 -0.27679324 0.25924724 0.26934138 0.19259034 -0.19428982 -0.19140002 -0.16129357
-0.021159086 0.16239727 -0.16236703 -0.026874812 0.110378 -0.018405836 -0.14544445 -0.21671316
-0.091774136 0.16675259 0.23163271 0.11594242 -0.23647507 -0.11830399 0.06672973 0.22901551
0.17761555 0.07154112 -0.29973432 0.12249594 0.3640232 0.12813681 -0.101243936 4.272259e-05
0.12601335 0.23229614 0.25698602 -0.0027153715 -0.13917834 -0.03164644 -0.23791151 -0.1249688
-0.27845168 -0.3271534 -0.15237014 0.108143374 0.145916 -0.17057706 -0.12090357 0.21420732
0.32668644 0.22676764 0.01901996 -0.05716499 0.1249447 -0.011839696 0.33949506 0.2343728
0.21358396 -0.36051038 0.04554276 0.28173912 0.24339491 -0.048934896

conv1.bias f4 [6]
00000000: b521 153e 5a09 893c 307a 043e 525e 0e3e
00000010: 73ce 38bd 7f43 bb3e
0.1456364 0.016728092 0.12937236 0.13903168 -0.04511876 0.36574933

conv2.weight f4 [16, 6, 5, 5]
00000000: 5a45 7cbd f240 793c 99f7 0ebe ea61 c63c
00000010: 4c8f 043e 29d0 44be 78bc c4bd 273d 46bd
00000020: bbad d63d ec5c f53b 7535 65bc 77d4 30be
00000030: f30b 7ebd 3925 633d 2547 f1bd 28ca ddbb
00000040: 3dd8 0a3d 8c9b 7dba c8d2 173c d55d 71bd
00000050: fd22 113e 21c1 99bd b3e0 6fbd 2962 9cbd
00000060: 9516 d1bc a600 b3bc 15c4 233d c354 9e3d
00000070: faed febd b037 583e 818a 5fbd 5a60 103e
00000080: 435c 243d c64b 2dbe 7ff9 543e ebb2 3bbd
00000090: 2f91 e1bc 4cc3 283e 65a3 bc3b 0c0b 5f3e
000000a0: aa23 a7bd 2b24 54bd 3ad3 753d c9c4 783d
000000b0: 87cf 17bd 8496 2abd b2e1 d3bd a712 1bbe
000000c0: 6c9e 0dbe ab70 59be 3b64 78bd 3387 41bd
000000d0: d2c9 e5bd 8b20 12bd 67dc 1ebd 75c1 10bd
000000e0: d491 0fbe 27eb 16be 97c2 0a3c a2ee e53b
000000f0: 255b f1bc 33e9 103d 552b 83bd 7501 1ebe
00000100: 5a81 48be 8e98 2cbd 98e4 c53c 756b ea3b
00000110: 0e99 09be 70b6 7fbb e913 853d f006 46bd
00000120: 9f67 64bc 2c19 fbb8 84a7 03bc 9812 74bd
00000130: fa28 153e 0db0 51bd f04d 4cbe 2e50 043e
00000140: dc37 febd a422 0f3e 9c5f 8c3d 071a 1abd
00000150: ca04 023e 7710 87be aec5 07bc c817 2b3e
00000160: bc7e 85bd d8db 523d 28b4 5fbe 22f6 4cbd
00000170: 2465 883c 2541 eebb a772 a93c 1464 273d
00000180: a623 0f3c 7a31 933c da7d 0cbd 1ea0 533d
00000190: 78fe 5a38 d81b 093c cdc3 28bd fc24 81be
000001a0: fe00 3f3c 731e 2cbe 5615 483e 69b8 b5bc
000001b0: 862f 2dbe 8574 cdbd e4e8 0dbe 00ab bb3d
000001c0: 8fd4 ee3d d5c2 a2bd 0829 d8bd 353f cabd
000001d0: 04cb 223d d2ef ee3c 49f9 a33d a969 103d
000001e0: a89c 68bd 6b0a 95bb 559d 2dbd ea70 c63b
000001f0: 8d0a a93d a6ef 82b9 99a9 4d3d 4b33 6ebe
00000200: 7415 e53c 3dee 1abd 1867 94bd fd40 373e
00000210: b508 023d 4968 e0bd 7847 a2bd 0ce7 3cbd
00000220: 8e57 c03d 39f6 bb3c ebd6 fdbd dc8e 47bd
00000230: 1c5f 4ebd aa32 993c 3f30 8e3d 6a78 a9bb
00000240: 97c5 95bd 5978 68bb 03b6 07be 1271 fdbb
00000250: cc35 a83c e29d f43c 9d95 40bd aab4 2e3d
00000260: dbb3 bd3c 012e c53d 7717 243e 4c40 053d
00000270: 5c42 b43d 2072 abbc c457 8d3d 9436 ef3c
00000280: f93d 71bd 6aec 54bc 03a9 76bd a5c0 4cbc
00000290: 3de8 8abd acbc 58bd 27af 90bd 4dc0 03be
000002a0: 5ec8 74be ba61 3abe 5d15 113d b7ea ddbd
000002b0: b5af 73be e759 debe 0a39 bbbe 5454 403d
000002c0: 9687 8abc 9b3d 0b3c 7ee5 10bd 34e3 553b
000002d0: cf8e d5bd 88d7 04be 1509 e2bd 1c7e 18bd
000002e0: 0ac4 33bd 855f 45be 645e a7bd 39f7 2ebe
000002f0: 34b4 35be f0e2 2abd 8789 a8be 2d65 16be
00000300: e6c9 50be 1439 64be 5ef9 7ebd 8079 78be
00000310: 4106 933b 687e 0dbd cb00 74bd 2321 82bc
00000320: 4b81 91bc d15c 04be 060a e4bc bf01 9dbd
00000330: dbde 29bd 11bb 22be 4302 1fbe 2598 a7bc
00000340: e269 32bc d708 bfbd 8d6b e93c e949 ef3c
00000350: 4145 8dbc 76b0 133d b2d2 f7bc 0f6a 003d
00000360: 7d95 45bd 94db 3bbd a741 9a3d b7cf d53c
00000370: 39c5 453d de52 c33d 67df b0bd 5c5f debd
00000380: e5e8 6b3c 0ba2 b43d 2aa8 90bc 9016 863d
00000390: aff7 5f3c edee 80bd 6c3f 84bb b0f2 ac3b
000003a0: 09f2 19bd 3707 ba3d c6ce af39 f023 ffbd
000003b0: e630 973c 5a9f 6d3d 3fa0 ac3d 45c8 693c
000003c0: 8578 14be bf9e c63d aaed 60bc 2e22 d93d
000003d0: dd20 633d 2703 a6bc fe41 ef3c e909 0f3e
000003e0: d88a 573d 91c4 b53c 9669 85bd d562 b0bd
000003f0: fbb2 58bd a724 483d 0807 9d3d b2bd 2fbd
-0.061589576 0.015213238 -0.13961639 0.024216611 0.12945288 -0.19220032 -0.0960626 -0.048398163
0.10482355 0.007487884 -0.013989796 -0.17268549 -0.062023114 0.05545542 -0.11781148 -0.0067684837
0.033897627 -0.00096743624 0.009266563 -0.058927376 0.14173503 -0.075075395 -0.0585639 -0.0763591
-0.025523463 -0.021850895 0.03998192 0.07731011 -0.12447734 0.21114993 -0.054575447 0.14099255
0.04012705 -0.16923437 0.207983 -0.045824926 -0.02753505 0.1648075 0.005756783 0.21781558
-0.08161099 -0.051792305 0.060015894 0.060734544 -0.037063148 -0.04164745 -0.10345782 -0.15143834
-0.13829964 -0.21234386 -0.060642462 -0.047248077 -0.11220135 -0.035675567 -0.03878441 -0.035340745
-0.14020473 -0.14738141 0.008469245 0.0070169726 -0.029462406 0.035378646 -0.06404749 -0.15430243
-0.19580594 -0.042137675 0.024156854 0.007153923 -0.13437292 -0.0039018653 0.06497938 -0.04834646
-0.013940721 -0.00011973301 -0.008035544 -0.059588045 0.14566413 -0.051193286 -0.19951606 0.12921211
-0.12412998 0.13978058 0.068541735 -0.037622478 0.1269714 -0.2637975 -0.008286877 0.1670829
-0.06518313 0.05147919 -0.21846068 -0.050039418 0.01664979 -0.0072709494 0.020684553 0.040866926
0.008736527 0.017967928 -0.03429971 0.05166637 5.2212243e-05 0.008368455 -0.041202355 -0.2522353
0.011657951 -0.1680849 0.19539389 -0.02218266 -0.1691266 -0.1003199 -0.13858372 0.09163475
0.11661636 -0.079473175 -0.10554701 -0.09875337 0.039744392 0.02916709 0.08006532 0.035257015
-0.056790024 -0.004548361 -0.04238637 0.006055941 0.082539655 -0.00024974084 0.05021057 -0.23261754
0.027964331 -0.037824858 -0.07246226 0.17895885 0.031746585 -0.10957391 -0.07923788 -0.04611878
0.093917 0.022944557 -0.12394508 -0.048720226 -0.050383672 0.018700916 0.06942796 -0.005171825
-0.07313078 -0.0035472123 -0.13253026 -0.0077344263 0.020533465 0.02986044 -0.047017682 0.042652763
0.02315705 0.09627915 0.16024576 0.03253202 0.088017195 -0.020928442 0.069015056 0.02920083
-0.058896992 -0.012995819 -0.060219776 -0.012497102 -0.06782577 -0.052914307 -0.07064658 -0.12866326
-0.23904559 -0.18201342 0.035420764 -0.10835784 -0.23797496 -0.43427965 -0.36566955 0.04695542
-0.016910356 0.008498575 -0.03537511 0.0032636644 -0.10427629 -0.12972844 -0.110368885 -0.037229642
-0.04388813 -0.19274719 -0.081723005 -0.17086495 -0.17744523 -0.04172033 -0.32917425 -0.14687033
-0.20389518 -0.22287399 -0.062249534 -0.24265099 0.0044868295 -0.03454438 -0.05957107 -0.015884941
-0.017761847 -0.12926032 -0.02783681 -0.07666349 -0.041472297 -0.15891673 -0.15528207 -0.02045829
-0.010889502 -0.09327858 0.028493667 0.029210048 -0.017244937 0.03605696 -0.030251835 0.031351145
-0.048238266 -0.045863703 0.075320534 0.026100023 0.04828379 0.0953729 -0.086363606 -0.10858032
0.014398788 0.0881997 -0.017658312 0.06547272 0.013669892 -0.062955715 -0.004035881 0.005277954
-0.03758434 0.09083407 0.0003353266 -0.124580264 0.018455934 0.058013298 0.08429002 0.014268939
-0.144991 0.09698247 -0.0137285385 0.106022224 0.055451263 -0.020265175 0.029206272 0.13968624
0.052622646 0.022188457 -0.065142795 -0.08612601 -0.052905064 0.04886308 0.07667357 -0.042905517

conv2.bias f4 [16]
00000000: 0891 6a3d c93f 75bd eacd df3c 3628 433c
00000010: a8e3 d1bc d743 10bd bd3b 4dbd f8d4 053e
00000020: e1a5 0ebd 36cf 163d 1e4e 2e3c 6d20 9abd
00000030: 7d0d ac3d eea9 03bd 99cb 2dbd 901f 823d
0.05726722 -0.059875283 0.027319867 0.0119114425 -0.02562125 -0.035220947 -0.0501058 0.13069522
-0.034826163 0.036818705 0.010638742 -0.07525716 0.0840101 -0.03214448 -0.042430494 0.06353676

fc1.weight f4 [120, 576]
00000000: f3fa 813d c7bd d23c 0b52 d9bd 512d 95bc
00000010: 3c83 36bd b9aa ec3d 4e98 83bc 3bc1 173e
00000020: 2be0 303e fb3a 5c3c 6498 bbbb 4d1a b5bd
00000030: ee47 8a3c 5425 bd3d 29bb da3c 051a 3c3c
00000040: d27c a43d 04f0 adbd 8f26 63bc 3c93 98bc
00000050: 643b fdbc e53b a4bb 6035 633c 56a3 febb
00000060: ae74 e63c f5b8 d9bc 2b2c 1d3d 8e6b 353d
00000070: b99e ddbc ba12 f8bd c16c e83d 06c5 74bc
00000080: 36da b7bd 0bff b2bd a1d3 df3d bccb aebd
00000090: e559 023e 40d1 ddbc a046 96be 8dac 5abe
000000a0: 14c7 01be 78d1 d23b 0937 16bc 5f83 78bd
000000b0: 7e0d babd e000 bbbd bfaf cbbc 25a9 b63c
000000c0: 398b df3d 73e3 583d 6642 6ebd 15c4 4e3d
000000d0: a1e3 c93c ebf0 483b 8302 193e 2b7d b23c
000000e0: 3481 2cbd faa0 1fbc 338d 843d 2aaa b2bc
000000f0: eea4 553c 0d5b ebbd 676c 3abd 5561 c03c
00000100: 8817 8cbc 7b02 323d 3a72 85bd c144 07be
00000110: c7dd 0dbe 76f5 b2bd 02a3 cebd aed3 3bbd
00000120: c4e0 463d 134d 02be 8015 0bbe 37cd b3bd
00000130: 4146 14bd a02e f53d 07f6 5abd 3b06 cebc
00000140: 56ef 79bd b128 4bbd e3e8 17bc acb8 d53d
00000150: 1e0a ed3d 4653 b83d 83f1 dd3c 4ae2 4e3e
00000160: d0a9 993d 550e 033e efa2 a53c f524 7dbd
00000170: 3e56 cfbd c32a 0f3d d2a7 3cbe 2ee0 57be
00000180: 678f 073e 63e2 9b3d dd10 6a3d 418e 29bd
00000190: 0230 573d d588 d23d 70e6 48bd f098 80bc
000001a0: 5e5f b9bc 9a72 34bc a140 f83c 5515 0bbe
000001b0: 54b8 8e3d 4e53 e93d 8920 c83d 8807 9bbb
000001c0: 210a 0ebc a5d6 cbbd 23e6 783d 94a5 ce3c
000001d0: 2a27 213d 94f2 1dbe 1bcb 17be c811 333c
000001e0: d479 d2bc 0d03 24be 2cda b13d 2f0b 5e3d
000001f0: 5aac e6bd dfdc 40bd a436 1d3e 0a36 3f3e
00000200: 3d9a c53d 5a8b b33d a386 90bd 64d2 36bd
00000210: 8859 bf3d 1b15 943d 5cb1 0c3e a62c a63d
00000220: 7b10 023e 1938 803d 7d84 09bd 2bc4 1fbe
00000230: 904c 19be cbf2 8e3c 8421 7f3c 083c bbbd
00000240: 06fc 88b9 d75f 3e3e 9add 743e f340 5e3e
00000250: 565c 573e dcad f23d 283c fc3d 3558 563d
00000260: 74c9 453e acf0 a33d f3a7 e53d bbb5 083e
00000270: c607 413d a442 a13d 41a2 5e3e 16ae 26be
00000280: d58c 8dbc 5ffd bc3c 0673 24bd cb52 153e
00000290: e88a 373e 211e 7cbd bee9 ec3c 925c 823d
000002a0: 402c 923c eb9b 2e3e 8d2c d53d 8b83 c13c
000002b0: 4e51 443d bce6 253d 9e8b 79bd 7529 d9bd
000002c0: 8328 4ebd 5541 453b c7db 16bd b7f1 063d
000002d0: 53aa 353d 90c5 60bd cc10 16bd 1476 06bc
000002e0: 3263 253d 70bc 6d3e 7115 1ebd cc42 223d
000002f0: 95b9 373d 1455 b43c 75c6 383e 8f61 e73d
00000300: f39d 09bb d028 e53d 8446 2d3c b1d1 353c
00000310: 780d 4ebd e254 f2bc 975c 1fbc 39c1 91bd
00000320: a21d 69bd b9a5 a43d bab5 cebd 615d d5bd
00000330: b9d3 b1bc 85c3 6cbc a093 763c c3dc 1abe
00000340: 97c1 313c 57a7 19bd 7148 12bd 569f 9e3c
00000350: e75b 123d d015 84bd 0fd3 543d e3bc 3b3d
00000360: 6df1 05bd 37ed 86be 11bd 44be 1653 1abe
00000370: 90d3 a1bd f6e0 e73d 02ad 5bbc 9936 c7bd
00000380: 6842 4b3c e533 a6bd 98df 0e3c 91e4 0d3e
00000390: 87e8 a73d a320 483e 24e6 043e 7446 8ebd
000003a0: 04df 983d 1070 3b3d 067b 353e 22f2 ca3d
000003b0: c249 86bc 0ce4 c6bd 7bde 9c3d d044 7cbc
000003c0: 0ad3 08bd 22b7 2fbd d794 b7bc e72a cc3c
000003d0: f8ca 44be 7e4e 9ebd 62d1 56bd bab6 90bc
000003e0: 9961 dcbc b9f4 22bd 9720 c8bd d978 25bc
000003f0: 2f02 16bd cd69 93bd 58d8 53be 4144 56be
0.06346693 0.025725259 -0.106113516 -0.018210085 -0.04455875 0.11556 -0.016063835 0.14819805
0.17273013 0.013441796 -0.0057249535 -0.08842907 0.016880002 0.092356354 0.026700573 0.011480813
0.0803162 -0.08493045 -0.013864174 -0.018624894 -0.030912109 -0.005012023 0.013867706 -0.007770936
0.02813181 -0.026577452 0.0383722 0.044292025 -0.027053224 -0.12112947 0.11348868 -0.014939552
-0.08977167 -0.08740052 0.10929037 -0.08534953 0.12729605 -0.027077317 -0.29350758 -0.21354885
-0.12673599 0.006433662 -0.009168395 -0.06067216 -0.09084605 -0.09131026 -0.024864076 0.022297451
0.109152265 0.052951287 -0.05816879 0.050479967 0.024644675 0.0030661176 0.14942364 0.0217882
-0.042115405 -0.00974297 0.06472244 -0.021809656 0.013039811 -0.11491976 -0.045513537 0.023483912
-0.017101064 0.043459397 -0.065159276 -0.13209821 -0.13854133 -0.08738224 -0.10089685 -0.04585617
0.048554197 -0.12724714 -0.1358242 -0.08779376 -0.03619981 0.11971784 -0.053457286 -0.025149455
-0.061019264 -0.049599353 -0.009271833 0.10435614 0.11574195 0.09000258 0.0270927 0.2020351
0.07503092 0.12798436 0.020219294 -0.061802823 -0.10123871 0.03495289 -0.18423393 -0.21081612
0.13238297 0.07611539 0.05714499 -0.04139543 0.05253602 0.10280005 -0.049047887 -0.015697926
-0.022628482 -0.011013651 0.030304255 -0.13582356 0.069687515 0.11392842 0.097718306 -0.0047311224
-0.008669407 -0.099530496 0.06076635 0.025225438 0.03934399 -0.15424567 -0.14823572 0.010929532
-0.025692858 -0.16016789 0.08684191 0.054209884 -0.11263342 -0.04708564 0.15352875 0.18672958
0.09648559 0.087668136 -0.0705693 -0.044634238 0.093432486 0.07230588 0.13739532 0.08113985
0.127016 0.062607 -0.033573616 -0.15602176 -0.14970613 0.017449757 0.015571956 -0.091423094
-0.00026127713 0.18591247 0.2391266 0.21704464 0.21031317 0.11849567 0.123161614 0.052330215
0.1931513 0.08004889 0.112136744 0.13350575 0.047126554 0.07874039 0.21741582 -0.16277346
-0.017279068 0.023070036 -0.040148757 0.14582364 0.17924082 -0.06155217 0.02892005 0.06365313
0.017843366 0.17051665 0.10408888 0.023622295 0.0479291 0.04050325 -0.060924165 -0.106036104
-0.050331604 0.0030098755 -0.03683069 0.03294536 0.044351887 -0.05487591 -0.036637112 -0.008206863
0.040377803 0.23216414 -0.038594667 0.039614484 0.04485472 0.022013225 0.18044455 0.11297905
-0.0020998686 0.11189425 0.010575894 0.011097358 -0.050305814 -0.02958149 -0.009726665 -0.071169324
-0.056913026 0.080394216 -0.10093255 -0.10418201 -0.021707403 -0.014450912 0.015049845 -0.15123276
0.010849378 -0.037513103 -0.035713617 0.019363087 0.035732176 -0.06449473 0.051959094 0.045834433
-0.032700945 -0.26352856 -0.19212748 -0.15070757 -0.079016805 0.11322205 -0.0134079475 -0.097272106
0.012405969 -0.08115367 0.008720301 0.13856722 0.08198648 0.195437 0.12978417 -0.069470316
0.07464412 0.045761168 0.17722711 0.099094644 -0.016392592 -0.09711465 0.07659622 -0.015397266
-0.033404388 -0.04289926 -0.02240984 0.024922801 -0.19218051 -0.07729815 -0.052445777 -0.017665256
-0.026902007 -0.039784167 -0.09771841 -0.010099613 -0.036623176 -0.07197914 -0.20687997 -0.20924474

fc1.bias f4 [120]
00000000: dec3 553b e09a c9bd 070e 5abd 1465 b23d
00000010: 6d53 1fbc c972 e23c a99e f83c cb54 4c3d
00000020: ed2a 443d 54c4 e63d d98c 39bd 797e 04bd
00000030: 5160 883d 5ce9 943d 2e42 1ebc ad21 b7bc
00000040: 13c9 adbc c682 03be deb0 ca3d 6ab9 48bd
00000050: f722 953c 6fa5 973c 560d 20bd 4329 403c
00000060: 5dd7 93bc 8810 083e c29c f6bc a459 e33d
00000070: 016e f23b 1593 68bd 60cf 09bd 8231 0bbd
00000080: a844 99bc 544d c03c 19c1 a8bd b8ca d53d
00000090: d652 a4bc 813f 473c a63a 80bd 729e 143e
000000a0: 89de 9fbc e70b c73d 2398 2a3e 2cb5 f13d
000000b0: d061 3fbd eeac f1bc 1c7a 31bd d7eb 95bd
000000c0: 4ba3 083e 9083 da3d 9cb5 44bd 6788 a0bc
000000d0: 620c 92bc 5304 59bd 7922 ba3d d962 63bd
000000e0: 278e 3d3d 88c5 73bd 50c9 18be 2175 e2bc
000000f0: b861 a73d 31ac 883d ed3f 8cba 0cd6 573d
00000100: f5cd 95bc 65ae 453e 97eb c0bc 8686 c6bd
00000110: 7268 6e3d 94a6 3a3e 3ceb b23d da6e 8fbc
00000120: 8880 693d 0005 003d 732b dc3c cec7 de3c
00000130: 8a1e 113e 435c 9bbd a196 0c3b 0aa5 25bc
00000140: 4651 9a3b 1f69 80bd 8e65 913c 6949 b13d
00000150: 2161 82bb 501e 3dbd d738 13bd 0922 c53d
00000160: f1f3 bd3c 30d2 8c3d f4e6 c53b 094f 38bc
00000170: 37ad 033d e72c c93d 0cea 0b3e 3223 2fbe
00000180: db05 0dbc fd97 f2bb 31b2 a83c 3bc1 993c
00000190: cf75 02be f827 593c 2153 adbd 986e 34bd
000001a0: 915f e5bd f73d a53b c4c5 ba3c 6035 f73c
000001b0: 65c2 0fbc 9d57 d0bc 5d1e 2dbd ff3d 4c3d
000001c0: 8874 17bd ca2b 903d e1fa f03c 481c 5bbc
000001d0: 20d7 273d 6387 65bd 8574 023c d6dc bd3d
0.0032617967 -0.09843993 -0.053236034 0.08710685 -0.00972448 0.027642624 0.030349093 0.049885552
0.0478925 0.11267915 -0.04530034 -0.032347176 0.06658996 0.07271072 -0.009659333 -0.022354925
-0.021214044 -0.12842855 0.09897016 -0.04900495 0.01820515 0.018511502 -0.03907522 0.011728588
-0.01804703 0.13287556 -0.030104045 0.11101082 0.0073983674 -0.056780893 -0.033645034 -0.03398276
-0.018709496 0.023474373 -0.082399555 0.10439056 -0.02005903 0.012161137 -0.06261186 0.14513567
-0.019515293 0.09719067 0.16659598 0.11802134 -0.04672414 -0.029501405 -0.043329343 -0.073203735
0.13343541 0.10669625 -0.04802476 -0.019596292 -0.01782817 -0.05298264 0.090886064 -0.05551419
0.046278145 -0.059514552 -0.14920545 -0.027643742 0.08172935 0.06673468 -0.0010700204 0.052694365
-0.018286685 0.19304807 -0.023549838 -0.09693627 0.058205076 0.18227607 0.08736274 -0.017508913
0.057007343 0.03125477 0.026876187 0.027194884 0.14171806 -0.07585957 0.0021452087 -0.010110149
0.0047093956 -0.0627005 0.01774862 0.0865658 -0.003978864 -0.046171486 -0.03594288 0.09625632
0.02318761 0.068760276 0.0060394946 -0.011249312 0.032147612 0.098230176 0.136635 -0.1710327
-0.008607353 -0.0074033723 0.02059278 0.018768897 -0.12740253 0.013254158 -0.08463121 -0.044050783
-0.111998685 0.005042787 0.02279938 0.030176818 -0.008774375 -0.025432402 -0.042265285 0.04986381
-0.036976367 0.07039602 0.029416503 -0.013373442 0.040976644 -0.056037318 0.007962351 0.09270637

fc2.weight f4 [84, 120]
00000000: 81f1 53be 1c58 793c 6d44 003d 5aa1 df3d
00000010: 9051 0dbd a112 0a3d 4c56 343d 15a5 233e
00000020: ce6b 063e 98b3 e43d 731a 1a3b 32c7 983d
00000030: ada5 cc3d eafd aabd e3a0 ca3d 7b00 b0bd
00000040: 96a2 323d b28f d3bd c7b0 233b 391d 0a3d
00000050: 942e 08bd ec8a 4fbd c57f 21bd 35c0 b33d
00000060: 8f8c 413d a02e 043c a825 a8bc eb22 66bc
00000070: 1384 f2bc bee7 96bd 98fa c33d 515d 073e
00000080: 3e56 1abd 57c2 c63c f6a0 483a 223b 313d
00000090: 9c30 88bc e472 c03d 0b3b 7d3d 65f2 5fbd
000000a0: b4d3 51bd 8958 81bd 10b3 ec3b 69bb 7dbd
000000b0: bcbd 4c3d d2f8 ddbd 4d6b 7ebd 8cf4 00be
000000c0: 6c52 6e3d 733d 03be b100 18bd e695 313c
000000d0: d126 2a3e f266 65bc f5b6 213e 4fb8 9cbc
000000e0: 4489 8dbd 7697 b03d d0a7 82bd c9c0 873d
000000f0: bba5 f83d 9415 41be 9ccf 05be 2938 2cbe
00000100: a05a 11bd 9588 dbbc 4bfb 9f3d 42ff b73d
00000110: 709e 2cbe c720 b6bc 2c68 a23d 5b31 6f3e
00000120: b580 ae3d 615b ca3c f4d5 f8bc 7a83 14bc
00000130: 3614 05bd 7b3f 46bc 5fd6 083d a526 71be
00000140: 6271 3b3d d5aa a5bd fe59 0c3e 9bbe a1bd
00000150: 489a d03d 7d40 fd3b ca7b 0dbd 627f 913c
00000160: 76e3 05be c6dc 72bd a06b 9bbc dbea a53c
00000170: 25e0 44bc d148 2fbd ed03 993d 7367 e93d
00000180: 27a4 4d3d 0033 04bd bdaf a8bc e5b4 aa3c
00000190: 1db1 90bd 2542 563d 74d3 9abc 5a6a 2a3d
000001a0: 9baf f4bd 0886 b73c 31d2 71bd 6e63 26be
000001b0: 745f 32bc 9be3 a0bd 1101 fd3c 13eb 1f3e
000001c0: d67d 373d 8400 2dbd 709a dc3b c938 e13d
000001d0: bed0 efbd b086 fcbd b579 133e b1a8 93bc
000001e0: eadb 70bd bfac 583d 8e7a e23c f177 ecbc
000001f0: 8259 f0bb 107f 153d b787 51bd 8cd0 633c
00000200: 32d8 5fbd 00ce 51bd 0c94 2c3d ab85 42bb
00000210: 488f 77bd 04ad b2bd 87c3 b13c f4a0 0e3d
00000220: ca9a d4bd dab7 d8bd fa06 5e3d b758 2f3d
00000230: 4ed9 8dbd b1df 943d 766e 533d da43 1e3d
00000240: 4eaa 2c3b 1fa1 d33c 27cf ecbd f9bc cdbc
00000250: 0046 24bd 0b1c 28bd 6ba8 663d 9b7e c6bd
00000260: c833 3a3d ef48 cebd cdd4 17bd 50c8 a7bc
00000270: 902e 873d bdf8 06ba 040b 433c 851e 373d
00000280: 46b1 653c 4adf 06bd e1ab 7dbd 78d6 503d
00000290: 610e 8cbd 819b 83bd 077a 3bbb 6e7f 1d3d
000002a0: ae9a 91bd d4cc 2ebd 76f2 4dbd 2d30 c2bd
000002b0: 7283 a4bd f347 9dbd 77e1 eb3c 96c5 ce3c
000002c0: d1f0 16bd 102c edbc eddd a8bd bf61 9bbd
000002d0: befb c8bd 2196 d4bb 1442 5aba a152 a7bd
000002e0: dbaf 923a 7e89 8bbc 77b6 1cbd f481 9a3c
000002f0: b0b4 44bd 036b 97bd fde4 653d 5641 85bd
00000300: 92a7 f9bc 0dfe 06bd 88c4 a83c 14df ad3a
00000310: fe6e f53c 9131 aa3b aab5 9bbd 2844 70bd
00000320: 2d98 c0bb ead1 82bc e86d e2bd 6d1e 56bd
00000330: c4f9 d33b 469c b13c 9bf8 8dbd ed80 41bd
00000340: 62f9 bebc c721 1abd 8b6a d5bd 805d a3bd
00000350: 4ce0 923d a2c6 adbd 3c39 96bd dd62 653d
00000360: d375 dbbd 7123 6f3d 82d8 6c3d 5c08 943c
00000370: cff4 adbd 2275 6abc 0e5d 003d c10e c83c
00000380: b197 a2bd d9db dabc 180e 77bd c400 97bd
00000390: 1787 1e3c b5f1 113d 21a9 ebba b3e2 113d
000003a0: 5c60 e0bc f0d5 aabd 4c24 9dbd 7ef4 4b3d
000003b0: fa34 c4bd 84f9 9ebd e489 c8bc c43b e2bd
000003c0: 43bf 95bb ba7a 2f3e 4914 9d3d f39b 993d
000003d0: 4dfe 9cbc 834e c1bb 510b d33d 56d8 42be
000003e0: 4acc 52bd fa39 c53d 0d29 843d 99ad 11be
000003f0: 0e9e 6bbd 0a24 d9bd 44a8 f7bc ba62 953c
-0.20697595 0.015218761 0.031315256 0.10919447 -0.034501612 0.033709172 0.04402761 0.15980943
0.13127062 0.11167067 0.00235143 0.074598685 0.09992538 -0.083492115 0.09893968 -0.08593842
0.043612085 -0.10330142 0.0024977194 0.033719275 -0.033247545 -0.050669596 -0.03942849 0.08776895
0.047253188 0.008067757 -0.020525768 -0.014046411 -0.029603994 -0.0736842 0.09569281 0.13219191
-0.037679903 0.02426259 0.00076533796 0.043269284 -0.016624741 0.09396914 0.061823886 -0.054674525
-0.051227286 -0.06315715 0.0072234944 -0.061946306 0.049985632 -0.10838474 -0.06211405 -0.12593287
0.058184072 -0.1281641 -0.037110034 0.010838961 0.1661637 -0.014001595 0.15792449 -0.019130854
-0.06910947 0.08622639 -0.06379664 0.06628568 0.121409856 -0.18855888 -0.13067478 -0.16818298
-0.035486817 -0.026798526 0.07811602 0.089842334 -0.16857314 -0.022232426 0.079300255 0.23358671
0.08520643 0.024701776 -0.030375458 -0.00906455 -0.032489978 -0.012100096 0.033407565 -0.23549898
0.045762427 -0.08089224 0.13706204 -0.07897683 0.10185677 0.007728635 -0.034541883 0.017760936
-0.1307505 -0.059292577 -0.018972218 0.02025359 -0.012016331 -0.042794053 0.07471452 0.113966845
0.050205376 -0.0322752 -0.020591611 0.02083821 -0.07065032 0.052309174 -0.018899657 0.04160533
-0.119475566 0.022402778 -0.059038345 -0.16248867 -0.010887016 -0.07855912 0.030884298 0.15617017
0.04479774 -0.04223682 0.0067322776 0.10997159 -0.11709736 -0.12330377 0.14401896 -0.018024774
-0.058803476 0.05289912 0.02764633 -0.028865786 -0.007334889 0.03649813 -0.05115482 0.013904702
-0.05464954 -0.051221848 0.042133376 -0.0029681723 -0.060439378 -0.08724406 0.02169968 0.034821466
-0.10381086 -0.10581942 0.054205872 0.042809214 -0.06926213 0.07269228 0.051619016 0.038638927
0.0026346627 0.025833664 -0.11562949 -0.025114523 -0.04010582 -0.04104237 0.05631296 -0.09692117
0.04545954 -0.10072505 -0.037068177 -0.020481259 0.06600678 -0.0005148759 0.011904482 0.04470684
0.014019316 -0.03292779 -0.061931495 0.050985783 -0.0683868 -0.064261444 -0.002860667 0.038451605
-0.07109581 -0.042675808 -0.050280057 -0.09481845 -0.08032884 -0.07679739 0.028794033 0.0252407
-0.036850754 -0.028951675 -0.08245454 -0.07587003 -0.09813641 -0.0064876233 -0.00083258864 -0.08170057
0.0011191325 -0.017033335 -0.03825995 0.018860795 -0.04802388 -0.07393458 0.056126583 -0.065066025
-0.030475412 -0.032957125 0.020601526 0.0013265335 0.029960152 0.005193897 -0.07603009 -0.05865875
-0.0058775158 -0.015969235 -0.11056119 -0.05227511 0.0064689834 0.021680962 -0.06932183 -0.047242094
-0.023312274 -0.03762987 -0.10420712 -0.07976818 0.071716875 -0.08485152 -0.07335135 0.056002486
-0.107158326 0.05838341 0.057823665 0.018070392 -0.08493959 -0.014310153 0.031338744 0.024421098
-0.07939089 -0.02671616 -0.060316175 -0.07373193 0.009675763 0.0356309 -0.0017979481 0.035616588
-0.027389698 -0.083415866 -0.07672939 0.049793713 -0.09580417 -0.07762435 -0.024479814 -0.11046556
-0.0045699193 0.1713666 0.07669885 0.07500448 -0.019164229 -0.005899252 0.10304893 -0.19027838
-0.051464356 0.09630199 0.06453142 -0.14226379 -0.05752378 -0.10602577 -0.030231602 0.018235553

fc2.bias f4 [84]
00000000: 111d 57bd 1353 a9bd 7bcc ae3d e306 e9bc
00000010: ba79 163d 6215 b8bc d26f a53b 48dd 21be
00000020: b4c6 783d 11e7 4b3e 8b17 0abd 9129 00be
00000030: 4138 493d 4236 47bd 7fda 2c3d 5f7b 42bd
00000040: b4f5 c93d 42d0 1e3d 8e4b 963d 929d a93d
00000050: d518 093e 2e1a d03d 12ec 94bd c4b6 dc3c
00000060: 05ca 08bd 7fb8 2fbd 26e0 efbd f0ad e1bd
00000070: 5238 83bd 504f 2a3c 57cb 69bd 44e0 e3bc
00000080: 2100 f13d df76 2d3e 6e88 e9bd a2f2 7c3e
00000090: 1c3e 1cbd e575 143d 4d39 9cbd be45 65bd
000000a0: eb59 8bbd a139 f4bd ffd9 4fbd 9bd1 033e
000000b0: 9f62 5a3e 90d7 703c e393 30bd afff 433d
000000c0: 06c4 043e 9400 3fbd 77fb 793e 1fe1 ac3d
000000d0: a4d5 0e3e c594 c63c e23f e53d d8e2 aa3d
000000e0: 240a 123d 0050 29bb 2d7d adbd d580 cf3c
000000f0: a67f 3dbd 8d02 6dbd b378 22bd 905a 11bd
00000100: 726a 18bd 473b 4dbd a372 98bc 727e 783c
00000110: 263e 5ebd 1c22 56bd b0cc 94bd 22a6 253d
00000120: 84cf 2c3d 4e41 013d 195f 88bd 40f1 243e
00000130: ecd6 c3bd f05e 253d e3d3 68bd 8598 273e
00000140: 2c0a d33d 3df8 923b 2612 ad3d 6162 c53c
-0.052517954 -0.08267798 0.08535095 -0.028445667 0.03673718 -0.022471134 0.0050487304 -0.15807068
0.060736373 0.19912364 -0.03371386 -0.12515856 0.049125914 -0.04863573 0.04220056 -0.047480937
0.09861317 0.03877283 0.0733863 0.08282007 0.13388379 0.101612434 -0.07271589 0.026942618
-0.033395786 -0.04290056 -0.11712675 -0.11019504 -0.064072266 0.010394886 -0.057078686 -0.0278169
0.11767603 0.16939877 -0.11402975 0.24701932 -0.03814517 0.036245245 -0.07628117 -0.055974714
-0.0680426 -0.11925054 -0.050745007 0.12872927 0.21326683 0.014699832 -0.043109786 0.04785126
0.12965402 -0.04663141 0.24412332 0.08441376 0.13948685 0.02424086 0.11193825 0.08344048
0.035654202 -0.0025835037 -0.08471141 0.025329987 -0.046264313 -0.05786376 -0.03966589 -0.035486758
-0.03721089 -0.05010536 -0.01860935 0.015166866 -0.054258488 -0.052278623 -0.072656035 0.04044164
0.04219009 0.03155642 -0.066587634 0.16107655 -0.095624775 0.040373743 -0.056842696 0.16366775
0.103046745 0.0044851587 0.08450727 0.024094762

fc3.weight f4 [10, 84]
00000000: 18e2 e5bd b681 04bd 98ee 433d fc0c 0d3e
00000010: 2d14 35be b527 12be 2498 8cbc 21b4 c0bc
00000020: 19b4 aabd 2f4d f3bc c476 d9bd 2bf5 f4bd
00000030: a1f3 953d 2ba4 6b3c 103e 863c 3bcb 43be
00000040: 2d5c e6bd 64da c93d 522d 27be c6d6 2c3c
00000050: 0836 77bd 7712 78be 80e3 81be d3df 213e
00000060: 959f 86bc 1ebc 133e f22f 2bbd 6e1b f3bd
00000070: 6e04 f33c f277 853d 7296 07be 3dfc f3bd
00000080: 8284 de3d 7184 1ebe 6219 093e 3bf0 81bc
00000090: 9afb 103e 62e2 64be 3f98 363e 15cf 933d
000000a0: 6e18 3abe 049c 493e be17 1dbe 0b65 34be
000000b0: 0488 0fbe e90a 813d 8efe 033e 3829 933b
000000c0: 9349 29be 283b 4bbe 6f44 afbd da51 dd3d
000000d0: 5621 e8bd 98c2 623c 61b0 11be 68c0 8f3d
000000e0: 9106 c53d 3935 7c3d d8be 2abe dbe6 c4bc
000000f0: 40f2 38be 6ad5 7ebe 91d5 3c3e 35ce afbd
00000100: c887 09bd 53ee 123d a176 91bb 9d96 843c
00000110: ef16 143c 9889 aa3d 7dcd 76be def7 bfbc
00000120: f883 bb3d c6a2 703d 4149 40be 45e8 31be
00000130: 8944 61bd 960b 43bd f5af 22bd 47b8 8fbc
00000140: 2f88 13be b082 00be 7537 163d 62b4 7fb9
00000150: f035 b43d f269 4dbd d216 40be 5847 b23c
00000160: b1b4 043e 9513 61be d82f 503e 9ffa a53d
00000170: 8834 f2bd 3dba 73be 97bd ecbd 9857 aebd
00000180: 6263 b93d 408e 80be c060 673d 79c4 b53d
00000190: 8466 343d 9a96 65bc 58a8 35be 3f29 3ebe
000001a0: d8d0 2dbe 77e7 03be 7aaa 013e 67e3 77be
000001b0: c265 1cbe 21bb f9bc a1d8 c23c 7e62 edbe
000001c0: f053 17bc b14c 383d 5671 74bd e32e 2b3d
000001d0: 41ac 5bbe de53 a8ba 3bc2 c8bb 5b98 95be
000001e0: 65b8 4e3e a87f 77bc 4761 d6bc 3974 113e
000001f0: b454 403e 66ce 8c3d d3e8 42bb 9dad 3bbe
00000200: 14ba b5bc 4625 a0bd 9b16 14bd c113 103d
00000210: 9a4f f3bc 6462 ef3d 6b54 12be f094 a8bd
00000220: 22ce b63d b841 02be c7da 253d cf45 02be
00000230: 8a04 99be 3752 80be 316b 0e3e b579 20be
00000240: 8a7f c63d 8a61 103e 4784 a6bd f4d1 5abe
00000250: 637c 24bc 955d 39be 2e6c 0a3d 085f c5bd
00000260: e1f7 8ebd 0193 8c3d 3bdb 0fbc d677 61bd
00000270: 8132 5f3c 5f81 15be ef94 c3bc aefc 2abe
00000280: 9289 25be 6c6f c4bd bd0e 93bd e705 21bc
00000290: 276f 4bbe 43c9 fd3d 759b 333e 1c05 af3d
000002a0: d94a ccbb 8948 50bd b575 57bd 5bfa b83c
000002b0: 15fb bebd c2bf 243e 4f63 f63d 10b8 bc3d
000002c0: 146c f2bd ee43 80bd de0f 153d c777 84bd
000002d0: 5043 b13d e528 99be bbd6 073e f244 543e
000002e0: 20cb 0f3d f46d d6bd 115a bebd cfb5 2cbe
000002f0: 596b 393e 140f c23d 6ea4 1fbd 1ec7 24be
00000300: c3af 973d ed87 c5bc 09bb 3b3d 3830 26be
00000310: 7633 563d 03ee a73d 704e 85bd 45c6 91bd
00000320: cd05 66be b304 12bd 208b 10be fe81 633d
00000330: a38c febd 3a17 163d 600b 113e 51a5 9f3d
00000340: fcab 5bbe 5f27 74be acd4 13bd 5fe5 e8bb
00000350: 42b8 30be 154e 1c3e ad67 c63d 83ea 673d
00000360: 6924 0e3e 08e0 2a3e db87 a03d 91bd 993d
00000370: 0c04 233d 2a6e 333c 4555 02be 161c 393e
00000380: adf1 35be 3c63 fdbc b47a 09be 15a2 00bd
00000390: 086f afbe 53f7 b83d fc2d a6bd d9bb f7bc
000003a0: 84d3 0dbe be42 eebc 7fa1 e0bb 75e3 283d
000003b0: d408 a63d eaf4 d6bb 5a38 83be 41c4 afbd
000003c0: 8851 b3bd 5194 80be 4ef9 3bbe 37a1 143a
000003d0: d842 d5bc 3392 14be 0eb1 70bd e85f c8bd
000003e0: 43d3 b63b aa7b 7fbe 9168 0bbd fbb5 3fbe
000003f0: d72b 3f3d fb66 fcbd bd29 953c e7a2 313b
-0.112247646 -0.032350264 0.047834963 0.13774484 -0.17683478 -0.1427296 -0.01716239 -0.023523392
-0.08335132 -0.02969989 -0.10618356 -0.119608246 0.07321859 0.014382402 0.016387016 -0.19120495
-0.1124805 0.09856108 -0.16325882 0.010549253 -0.060354263 -0.24225794 -0.2536888 0.15808038
-0.016433517 0.1442723 -0.04179377 -0.11870466 0.029665198 0.065170184 -0.13240984 -0.11913345
0.108651176 -0.1548021 0.13388589 -0.015861621 0.14158478 -0.22351983 0.17831515 0.07217232
-0.18173382 0.19688421 -0.15341088 -0.1761667 -0.1401673 0.06300909 0.12890074 0.0044909976
-0.16531973 -0.19846785 -0.085579745 0.108066276 -0.11334483 0.01384034 -0.1422744 0.070191205
0.09620393 0.061574195 -0.16674364 -0.024035862 -0.18061161 -0.24886099 0.18440844 -0.08584253
-0.033576757 0.035871815 -0.0044391905 0.0161851 0.009038671 0.08327025 -0.24101825 -0.023433622
0.091560304 0.058748983 -0.18777944 -0.1737376 -0.054997 -0.04761847 -0.039718587 -0.017543925
-0.14407419 -0.12549853 0.03667398 -0.00024385893 0.0879935 -0.050149865 -0.18758705 0.021762535
0.12959553 -0.21980126 0.20330751 0.08104443 -0.11826426 -0.23801513 -0.11559599 -0.08512801
0.09052159 -0.25108528 0.056488752 0.08875365 0.04404308 -0.014012957 -0.1774 -0.18570422
-0.16974199 -0.12881266 0.12662688 -0.24207841 -0.15273193 -0.030484738 0.023784937 -0.46364206
-0.009236321 0.044995014 -0.059678398 0.04179276 -0.21452428 -0.0012842377 -0.0061266697 -0.292178
0.20187528 -0.015106119 -0.026169432 0.14204492 0.18782312 0.06875305 -0.0029740825 -0.18327947
-0.022183456 -0.07819609 -0.03615437 0.03517509 -0.029701043 0.116886884 -0.14290015 -0.082315326
0.089260355 -0.12720382 0.040491845 -0.12721942 -0.29886276 -0.25062725 0.13908078 -0.15671428
0.09692295 0.14099708 -0.08130699 -0.21369153 -0.010039422 -0.18102105 0.033794574 -0.096372664
-0.06980873 0.06863976 -0.008780296 -0.055045925 0.013622881 -0.14600132 -0.023874728 -0.16697952
-0.1616576 -0.095915645 -0.071805455 -0.009828067 -0.1986662 0.12391903 0.17539771 0.085458964
-0.0062345085 -0.050850425 -0.05260249 0.022580316 -0.09325234 0.16088775 0.1203066 0.09214795
-0.118370205 -0.062629566 0.036392085 -0.06468158 0.08655417 -0.29914013 0.13265507 0.20729426
0.035105824 -0.10470191 -0.092945226 -0.1686623 0.18107356 0.09475532 -0.03897517 -0.16091582
0.07406571 -0.024112666 0.045832667 -0.16229331 0.05229517 0.08199694 -0.065091014 -0.07117895
-0.2246315 -0.035649013 -0.14115572 0.055543892 -0.12429168 0.036643244 0.14164495 0.077952035
-0.21452326 -0.23843144 -0.03609149 -0.0071074213 -0.17257789 0.15264161 0.09687743 0.056620132
0.13881077 0.16687024 0.078384124 0.0750686 0.03979878 0.010951558 -0.1272784 0.1807712
-0.17767973 -0.030931108 -0.13425714 -0.031404573 -0.34264398 0.09031548 -0.081142396 -0.03024094
-0.13850218 -0.02908456 -0.0068551893 0.041232545 0.081071526 -0.0065599578 -0.2562893 -0.08582354
-0.08755785 -0.25113156 -0.18356821 0.0005669775 -0.02603285 -0.14508896 -0.058762603 -0.09783918
0.0055793836 -0.24949518 -0.03403527 -0.18721764 0.04667267 -0.123243295 0.018208379 0.0027105154

fc3.bias f4 [10]
00000000: 0cbc 623d 04f0 e7bd f10b c0bc 60fc 093d
00000010: a2d3 993c 3413 a6bc 0411 23be ba35 ebbd
00000020: daab 3f3e 41a3 793d
0.055355117 -0.11325076 -0.023443194 0.03368795 0.018777672 -0.020272829 -0.1592446 -0.11484857
0.187179 0.060946707
